{"format": "graph-model", "generatedBy": "2.18.0", "convertedBy": "TensorFlow.js Converter v4.22.0", "signature": {"inputs": {"keras_tensor_288": {"name": "keras_tensor_288:0", "dtype": "DT_FLOAT", "tensorShape": {"dim": [{"size": "-1"}, {"size": "256"}, {"size": "256"}, {"size": "1"}]}}}, "outputs": {"output_0": {"name": "Identity:0", "dtype": "DT_FLOAT", "tensorShape": {"dim": [{"size": "-1"}, {"size": "256"}, {"size": "256"}, {"size": "1"}]}}}}, "modelTopology": {"node": [{"name": "StatefulPartitionedCall/functional_9_1/conv2d_transpose_39_1/strided_slice/stack", "op": "Const", "attr": {"value": {"tensor": {"dtype": "DT_INT32", "tensorShape": {"dim": [{"size": "1"}]}}}, "dtype": {"type": "DT_INT32"}}}, {"name": "StatefulPartitionedCall/functional_9_1/conv2d_transpose_39_1/strided_slice/stack_1", "op": "Const", "attr": {"value": {"tensor": {"dtype": "DT_INT32", "tensorShape": {"dim": [{"size": "1"}]}}}, "dtype": {"type": "DT_INT32"}}}, {"name": "StatefulPartitionedCall/functional_9_1/conv2d_transpose_39_1/strided_slice/stack_2", "op": "Const", "attr": {"value": {"tensor": {"dtype": "DT_INT32", "tensorShape": {"dim": [{"size": "1"}]}}}, "dtype": {"type": "DT_INT32"}}}, {"name": "StatefulPartitionedCall/functional_9_1/conv2d_transpose_39_1/conv_transpose/input_sizes/1", "op": "Const", "attr": {"value": {"tensor": {"dtype": "DT_INT32", "tensorShape": {}}}, "dtype": {"type": "DT_INT32"}}}, {"name": "StatefulPartitionedCall/functional_9_1/conv2d_transpose_39_1/conv_transpose/input_sizes/2", "op": "Const", "attr": {"value": {"tensor": {"dtype": "DT_INT32", "tensorShape": {}}}, "dtype": {"type": "DT_INT32"}}}, {"name": "StatefulPartitionedCall/functional_9_1/conv2d_transpose_39_1/conv_transpose/input_sizes/3", "op": "Const", "attr": {"value": {"tensor": {"dtype": "DT_INT32", "tensorShape": {}}}, "dtype": {"type": "DT_INT32"}}}, {"name": "StatefulPartitionedCall/functional_9_1/conv2d_transpose_39_1/conv_transpose/ReadVariableOp", "op": "Const", "attr": {"value": {"tensor": {"dtype": "DT_FLOAT", "tensorShape": {"dim": [{"size": "2"}, {"size": "2"}, {"size": "64"}, {"size": "128"}]}}}, "dtype": {"type": "DT_FLOAT"}}}, {"name": "StatefulPartitionedCall/functional_9_1/conv2d_transpose_38_1/strided_slice/stack", "op": "Const", "attr": {"value": {"tensor": {"dtype": "DT_INT32", "tensorShape": {"dim": [{"size": "1"}]}}}, "dtype": {"type": "DT_INT32"}}}, {"name": "StatefulPartitionedCall/functional_9_1/conv2d_transpose_38_1/strided_slice/stack_1", "op": "Const", "attr": {"value": {"tensor": {"dtype": "DT_INT32", "tensorShape": {"dim": [{"size": "1"}]}}}, "dtype": {"type": "DT_INT32"}}}, {"name": "StatefulPartitionedCall/functional_9_1/conv2d_transpose_38_1/strided_slice/stack_2", "op": "Const", "attr": {"value": {"tensor": {"dtype": "DT_INT32", "tensorShape": {"dim": [{"size": "1"}]}}}, "dtype": {"type": "DT_INT32"}}}, {"name": "StatefulPartitionedCall/functional_9_1/conv2d_transpose_38_1/conv_transpose/input_sizes/1", "op": "Const", "attr": {"value": {"tensor": {"dtype": "DT_INT32", "tensorShape": {}}}, "dtype": {"type": "DT_INT32"}}}, {"name": "StatefulPartitionedCall/functional_9_1/conv2d_transpose_38_1/conv_transpose/input_sizes/2", "op": "Const", "attr": {"value": {"tensor": {"dtype": "DT_INT32", "tensorShape": {}}}, "dtype": {"type": "DT_INT32"}}}, {"name": "StatefulPartitionedCall/functional_9_1/conv2d_transpose_38_1/conv_transpose/input_sizes/3", "op": "Const", "attr": {"value": {"tensor": {"dtype": "DT_INT32", "tensorShape": {}}}, "dtype": {"type": "DT_INT32"}}}, {"name": "StatefulPartitionedCall/functional_9_1/conv2d_transpose_38_1/conv_transpose/ReadVariableOp", "op": "Const", "attr": {"value": {"tensor": {"dtype": "DT_FLOAT", "tensorShape": {"dim": [{"size": "2"}, {"size": "2"}, {"size": "128"}, {"size": "256"}]}}}, "dtype": {"type": "DT_FLOAT"}}}, {"name": "StatefulPartitionedCall/functional_9_1/conv2d_transpose_37_1/strided_slice/stack", "op": "Const", "attr": {"value": {"tensor": {"dtype": "DT_INT32", "tensorShape": {"dim": [{"size": "1"}]}}}, "dtype": {"type": "DT_INT32"}}}, {"name": "StatefulPartitionedCall/functional_9_1/conv2d_transpose_37_1/strided_slice/stack_1", "op": "Const", "attr": {"value": {"tensor": {"dtype": "DT_INT32", "tensorShape": {"dim": [{"size": "1"}]}}}, "dtype": {"type": "DT_INT32"}}}, {"name": "StatefulPartitionedCall/functional_9_1/conv2d_transpose_37_1/strided_slice/stack_2", "op": "Const", "attr": {"value": {"tensor": {"dtype": "DT_INT32", "tensorShape": {"dim": [{"size": "1"}]}}}, "dtype": {"type": "DT_INT32"}}}, {"name": "StatefulPartitionedCall/functional_9_1/conv2d_transpose_37_1/conv_transpose/input_sizes/1", "op": "Const", "attr": {"value": {"tensor": {"dtype": "DT_INT32", "tensorShape": {}}}, "dtype": {"type": "DT_INT32"}}}, {"name": "StatefulPartitionedCall/functional_9_1/conv2d_transpose_37_1/conv_transpose/input_sizes/2", "op": "Const", "attr": {"value": {"tensor": {"dtype": "DT_INT32", "tensorShape": {}}}, "dtype": {"type": "DT_INT32"}}}, {"name": "StatefulPartitionedCall/functional_9_1/conv2d_transpose_37_1/conv_transpose/input_sizes/3", "op": "Const", "attr": {"value": {"tensor": {"dtype": "DT_INT32", "tensorShape": {}}}, "dtype": {"type": "DT_INT32"}}}, {"name": "StatefulPartitionedCall/functional_9_1/conv2d_transpose_37_1/conv_transpose/ReadVariableOp", "op": "Const", "attr": {"value": {"tensor": {"dtype": "DT_FLOAT", "tensorShape": {"dim": [{"size": "2"}, {"size": "2"}, {"size": "256"}, {"size": "512"}]}}}, "dtype": {"type": "DT_FLOAT"}}}, {"name": "StatefulPartitionedCall/functional_9_1/conv2d_transpose_36_1/strided_slice/stack", "op": "Const", "attr": {"value": {"tensor": {"dtype": "DT_INT32", "tensorShape": {"dim": [{"size": "1"}]}}}, "dtype": {"type": "DT_INT32"}}}, {"name": "StatefulPartitionedCall/functional_9_1/conv2d_transpose_36_1/strided_slice/stack_1", "op": "Const", "attr": {"value": {"tensor": {"dtype": "DT_INT32", "tensorShape": {"dim": [{"size": "1"}]}}}, "dtype": {"type": "DT_INT32"}}}, {"name": "StatefulPartitionedCall/functional_9_1/conv2d_transpose_36_1/strided_slice/stack_2", "op": "Const", "attr": {"value": {"tensor": {"dtype": "DT_INT32", "tensorShape": {"dim": [{"size": "1"}]}}}, "dtype": {"type": "DT_INT32"}}}, {"name": "StatefulPartitionedCall/functional_9_1/conv2d_transpose_36_1/conv_transpose/input_sizes/1", "op": "Const", "attr": {"value": {"tensor": {"dtype": "DT_INT32", "tensorShape": {}}}, "dtype": {"type": "DT_INT32"}}}, {"name": "StatefulPartitionedCall/functional_9_1/conv2d_transpose_36_1/conv_transpose/input_sizes/2", "op": "Const", "attr": {"value": {"tensor": {"dtype": "DT_INT32", "tensorShape": {}}}, "dtype": {"type": "DT_INT32"}}}, {"name": "StatefulPartitionedCall/functional_9_1/conv2d_transpose_36_1/conv_transpose/input_sizes/3", "op": "Const", "attr": {"value": {"tensor": {"dtype": "DT_INT32", "tensorShape": {}}}, "dtype": {"type": "DT_INT32"}}}, {"name": "StatefulPartitionedCall/functional_9_1/conv2d_transpose_36_1/conv_transpose/ReadVariableOp", "op": "Const", "attr": {"value": {"tensor": {"dtype": "DT_FLOAT", "tensorShape": {"dim": [{"size": "2"}, {"size": "2"}, {"size": "512"}, {"size": "1024"}]}}}, "dtype": {"type": "DT_FLOAT"}}}, {"name": "StatefulPartitionedCall/functional_9_1/conv2d_179_1/convolution/ReadVariableOp", "op": "Const", "attr": {"value": {"tensor": {"dtype": "DT_FLOAT", "tensorShape": {"dim": [{"size": "3"}, {"size": "3"}, {"size": "512"}, {"size": "1024"}]}}}, "dtype": {"type": "DT_FLOAT"}}}, {"name": "StatefulPartitionedCall/functional_9_1/conv2d_179_1/Squeeze", "op": "Const", "attr": {"value": {"tensor": {"dtype": "DT_FLOAT", "tensorShape": {"dim": [{"size": "1024"}]}}}, "dtype": {"type": "DT_FLOAT"}}}, {"name": "StatefulPartitionedCall/functional_9_1/conv2d_180_1/convolution/ReadVariableOp", "op": "Const", "attr": {"value": {"tensor": {"dtype": "DT_FLOAT", "tensorShape": {"dim": [{"size": "3"}, {"size": "3"}, {"size": "1024"}, {"size": "1024"}]}}}, "dtype": {"type": "DT_FLOAT"}}}, {"name": "StatefulPartitionedCall/functional_9_1/conv2d_180_1/Squeeze", "op": "Const", "attr": {"value": {"tensor": {"dtype": "DT_FLOAT", "tensorShape": {"dim": [{"size": "1024"}]}}}, "dtype": {"type": "DT_FLOAT"}}}, {"name": "StatefulPartitionedCall/functional_9_1/conv2d_transpose_36_1/Squeeze", "op": "Const", "attr": {"value": {"tensor": {"dtype": "DT_FLOAT", "tensorShape": {"dim": [{"size": "512"}]}}}, "dtype": {"type": "DT_FLOAT"}}}, {"name": "StatefulPartitionedCall/functional_9_1/conv2d_177_1/convolution/ReadVariableOp", "op": "Const", "attr": {"value": {"tensor": {"dtype": "DT_FLOAT", "tensorShape": {"dim": [{"size": "3"}, {"size": "3"}, {"size": "256"}, {"size": "512"}]}}}, "dtype": {"type": "DT_FLOAT"}}}, {"name": "StatefulPartitionedCall/functional_9_1/conv2d_177_1/Squeeze", "op": "Const", "attr": {"value": {"tensor": {"dtype": "DT_FLOAT", "tensorShape": {"dim": [{"size": "512"}]}}}, "dtype": {"type": "DT_FLOAT"}}}, {"name": "StatefulPartitionedCall/functional_9_1/conv2d_178_1/convolution/ReadVariableOp", "op": "Const", "attr": {"value": {"tensor": {"dtype": "DT_FLOAT", "tensorShape": {"dim": [{"size": "3"}, {"size": "3"}, {"size": "512"}, {"size": "512"}]}}}, "dtype": {"type": "DT_FLOAT"}}}, {"name": "StatefulPartitionedCall/functional_9_1/conv2d_178_1/Squeeze", "op": "Const", "attr": {"value": {"tensor": {"dtype": "DT_FLOAT", "tensorShape": {"dim": [{"size": "512"}]}}}, "dtype": {"type": "DT_FLOAT"}}}, {"name": "StatefulPartitionedCall/functional_9_1/concatenate_36_1/concat/axis", "op": "Const", "attr": {"value": {"tensor": {"dtype": "DT_INT32", "tensorShape": {}}}, "dtype": {"type": "DT_INT32"}}}, {"name": "StatefulPartitionedCall/functional_9_1/conv2d_181_1/convolution/ReadVariableOp", "op": "Const", "attr": {"value": {"tensor": {"dtype": "DT_FLOAT", "tensorShape": {"dim": [{"size": "3"}, {"size": "3"}, {"size": "1024"}, {"size": "512"}]}}}, "dtype": {"type": "DT_FLOAT"}}}, {"name": "StatefulPartitionedCall/functional_9_1/conv2d_181_1/Squeeze", "op": "Const", "attr": {"value": {"tensor": {"dtype": "DT_FLOAT", "tensorShape": {"dim": [{"size": "512"}]}}}, "dtype": {"type": "DT_FLOAT"}}}, {"name": "StatefulPartitionedCall/functional_9_1/conv2d_182_1/convolution/ReadVariableOp", "op": "Const", "attr": {"value": {"tensor": {"dtype": "DT_FLOAT", "tensorShape": {"dim": [{"size": "3"}, {"size": "3"}, {"size": "512"}, {"size": "512"}]}}}, "dtype": {"type": "DT_FLOAT"}}}, {"name": "StatefulPartitionedCall/functional_9_1/conv2d_182_1/Squeeze", "op": "Const", "attr": {"value": {"tensor": {"dtype": "DT_FLOAT", "tensorShape": {"dim": [{"size": "512"}]}}}, "dtype": {"type": "DT_FLOAT"}}}, {"name": "StatefulPartitionedCall/functional_9_1/conv2d_transpose_37_1/Squeeze", "op": "Const", "attr": {"value": {"tensor": {"dtype": "DT_FLOAT", "tensorShape": {"dim": [{"size": "256"}]}}}, "dtype": {"type": "DT_FLOAT"}}}, {"name": "StatefulPartitionedCall/functional_9_1/conv2d_175_1/convolution/ReadVariableOp", "op": "Const", "attr": {"value": {"tensor": {"dtype": "DT_FLOAT", "tensorShape": {"dim": [{"size": "3"}, {"size": "3"}, {"size": "128"}, {"size": "256"}]}}}, "dtype": {"type": "DT_FLOAT"}}}, {"name": "StatefulPartitionedCall/functional_9_1/conv2d_175_1/Squeeze", "op": "Const", "attr": {"value": {"tensor": {"dtype": "DT_FLOAT", "tensorShape": {"dim": [{"size": "256"}]}}}, "dtype": {"type": "DT_FLOAT"}}}, {"name": "StatefulPartitionedCall/functional_9_1/conv2d_176_1/convolution/ReadVariableOp", "op": "Const", "attr": {"value": {"tensor": {"dtype": "DT_FLOAT", "tensorShape": {"dim": [{"size": "3"}, {"size": "3"}, {"size": "256"}, {"size": "256"}]}}}, "dtype": {"type": "DT_FLOAT"}}}, {"name": "StatefulPartitionedCall/functional_9_1/conv2d_176_1/Squeeze", "op": "Const", "attr": {"value": {"tensor": {"dtype": "DT_FLOAT", "tensorShape": {"dim": [{"size": "256"}]}}}, "dtype": {"type": "DT_FLOAT"}}}, {"name": "StatefulPartitionedCall/functional_9_1/concatenate_37_1/concat/axis", "op": "Const", "attr": {"value": {"tensor": {"dtype": "DT_INT32", "tensorShape": {}}}, "dtype": {"type": "DT_INT32"}}}, {"name": "StatefulPartitionedCall/functional_9_1/conv2d_183_1/convolution/ReadVariableOp", "op": "Const", "attr": {"value": {"tensor": {"dtype": "DT_FLOAT", "tensorShape": {"dim": [{"size": "3"}, {"size": "3"}, {"size": "512"}, {"size": "256"}]}}}, "dtype": {"type": "DT_FLOAT"}}}, {"name": "StatefulPartitionedCall/functional_9_1/conv2d_183_1/Squeeze", "op": "Const", "attr": {"value": {"tensor": {"dtype": "DT_FLOAT", "tensorShape": {"dim": [{"size": "256"}]}}}, "dtype": {"type": "DT_FLOAT"}}}, {"name": "StatefulPartitionedCall/functional_9_1/conv2d_184_1/convolution/ReadVariableOp", "op": "Const", "attr": {"value": {"tensor": {"dtype": "DT_FLOAT", "tensorShape": {"dim": [{"size": "3"}, {"size": "3"}, {"size": "256"}, {"size": "256"}]}}}, "dtype": {"type": "DT_FLOAT"}}}, {"name": "StatefulPartitionedCall/functional_9_1/conv2d_184_1/Squeeze", "op": "Const", "attr": {"value": {"tensor": {"dtype": "DT_FLOAT", "tensorShape": {"dim": [{"size": "256"}]}}}, "dtype": {"type": "DT_FLOAT"}}}, {"name": "StatefulPartitionedCall/functional_9_1/conv2d_transpose_38_1/Squeeze", "op": "Const", "attr": {"value": {"tensor": {"dtype": "DT_FLOAT", "tensorShape": {"dim": [{"size": "128"}]}}}, "dtype": {"type": "DT_FLOAT"}}}, {"name": "StatefulPartitionedCall/functional_9_1/conv2d_173_1/convolution/ReadVariableOp", "op": "Const", "attr": {"value": {"tensor": {"dtype": "DT_FLOAT", "tensorShape": {"dim": [{"size": "3"}, {"size": "3"}, {"size": "64"}, {"size": "128"}]}}}, "dtype": {"type": "DT_FLOAT"}}}, {"name": "StatefulPartitionedCall/functional_9_1/conv2d_173_1/Squeeze", "op": "Const", "attr": {"value": {"tensor": {"dtype": "DT_FLOAT", "tensorShape": {"dim": [{"size": "128"}]}}}, "dtype": {"type": "DT_FLOAT"}}}, {"name": "StatefulPartitionedCall/functional_9_1/conv2d_174_1/convolution/ReadVariableOp", "op": "Const", "attr": {"value": {"tensor": {"dtype": "DT_FLOAT", "tensorShape": {"dim": [{"size": "3"}, {"size": "3"}, {"size": "128"}, {"size": "128"}]}}}, "dtype": {"type": "DT_FLOAT"}}}, {"name": "StatefulPartitionedCall/functional_9_1/conv2d_174_1/Squeeze", "op": "Const", "attr": {"value": {"tensor": {"dtype": "DT_FLOAT", "tensorShape": {"dim": [{"size": "128"}]}}}, "dtype": {"type": "DT_FLOAT"}}}, {"name": "StatefulPartitionedCall/functional_9_1/concatenate_38_1/concat/axis", "op": "Const", "attr": {"value": {"tensor": {"dtype": "DT_INT32", "tensorShape": {}}}, "dtype": {"type": "DT_INT32"}}}, {"name": "StatefulPartitionedCall/functional_9_1/conv2d_185_1/convolution/ReadVariableOp", "op": "Const", "attr": {"value": {"tensor": {"dtype": "DT_FLOAT", "tensorShape": {"dim": [{"size": "3"}, {"size": "3"}, {"size": "256"}, {"size": "128"}]}}}, "dtype": {"type": "DT_FLOAT"}}}, {"name": "StatefulPartitionedCall/functional_9_1/conv2d_185_1/Squeeze", "op": "Const", "attr": {"value": {"tensor": {"dtype": "DT_FLOAT", "tensorShape": {"dim": [{"size": "128"}]}}}, "dtype": {"type": "DT_FLOAT"}}}, {"name": "StatefulPartitionedCall/functional_9_1/conv2d_186_1/convolution/ReadVariableOp", "op": "Const", "attr": {"value": {"tensor": {"dtype": "DT_FLOAT", "tensorShape": {"dim": [{"size": "3"}, {"size": "3"}, {"size": "128"}, {"size": "128"}]}}}, "dtype": {"type": "DT_FLOAT"}}}, {"name": "StatefulPartitionedCall/functional_9_1/conv2d_186_1/Squeeze", "op": "Const", "attr": {"value": {"tensor": {"dtype": "DT_FLOAT", "tensorShape": {"dim": [{"size": "128"}]}}}, "dtype": {"type": "DT_FLOAT"}}}, {"name": "StatefulPartitionedCall/functional_9_1/conv2d_transpose_39_1/Squeeze", "op": "Const", "attr": {"value": {"tensor": {"dtype": "DT_FLOAT", "tensorShape": {"dim": [{"size": "64"}]}}}, "dtype": {"type": "DT_FLOAT"}}}, {"name": "StatefulPartitionedCall/functional_9_1/conv2d_171_1/convolution/ReadVariableOp", "op": "Const", "attr": {"value": {"tensor": {"dtype": "DT_FLOAT", "tensorShape": {"dim": [{"size": "3"}, {"size": "3"}, {"size": "1"}, {"size": "64"}]}}}, "dtype": {"type": "DT_FLOAT"}}}, {"name": "StatefulPartitionedCall/functional_9_1/conv2d_171_1/Squeeze", "op": "Const", "attr": {"value": {"tensor": {"dtype": "DT_FLOAT", "tensorShape": {"dim": [{"size": "64"}]}}}, "dtype": {"type": "DT_FLOAT"}}}, {"name": "StatefulPartitionedCall/functional_9_1/conv2d_172_1/convolution/ReadVariableOp", "op": "Const", "attr": {"value": {"tensor": {"dtype": "DT_FLOAT", "tensorShape": {"dim": [{"size": "3"}, {"size": "3"}, {"size": "64"}, {"size": "64"}]}}}, "dtype": {"type": "DT_FLOAT"}}}, {"name": "StatefulPartitionedCall/functional_9_1/conv2d_172_1/Squeeze", "op": "Const", "attr": {"value": {"tensor": {"dtype": "DT_FLOAT", "tensorShape": {"dim": [{"size": "64"}]}}}, "dtype": {"type": "DT_FLOAT"}}}, {"name": "StatefulPartitionedCall/functional_9_1/concatenate_39_1/concat/axis", "op": "Const", "attr": {"value": {"tensor": {"dtype": "DT_INT32", "tensorShape": {}}}, "dtype": {"type": "DT_INT32"}}}, {"name": "StatefulPartitionedCall/functional_9_1/conv2d_187_1/convolution/ReadVariableOp", "op": "Const", "attr": {"value": {"tensor": {"dtype": "DT_FLOAT", "tensorShape": {"dim": [{"size": "3"}, {"size": "3"}, {"size": "128"}, {"size": "64"}]}}}, "dtype": {"type": "DT_FLOAT"}}}, {"name": "StatefulPartitionedCall/functional_9_1/conv2d_187_1/Squeeze", "op": "Const", "attr": {"value": {"tensor": {"dtype": "DT_FLOAT", "tensorShape": {"dim": [{"size": "64"}]}}}, "dtype": {"type": "DT_FLOAT"}}}, {"name": "StatefulPartitionedCall/functional_9_1/conv2d_188_1/convolution/ReadVariableOp", "op": "Const", "attr": {"value": {"tensor": {"dtype": "DT_FLOAT", "tensorShape": {"dim": [{"size": "3"}, {"size": "3"}, {"size": "64"}, {"size": "64"}]}}}, "dtype": {"type": "DT_FLOAT"}}}, {"name": "StatefulPartitionedCall/functional_9_1/conv2d_188_1/Squeeze", "op": "Const", "attr": {"value": {"tensor": {"dtype": "DT_FLOAT", "tensorShape": {"dim": [{"size": "64"}]}}}, "dtype": {"type": "DT_FLOAT"}}}, {"name": "StatefulPartitionedCall/functional_9_1/conv2d_189_1/convolution/ReadVariableOp", "op": "Const", "attr": {"value": {"tensor": {"dtype": "DT_FLOAT", "tensorShape": {"dim": [{"size": "1"}, {"size": "1"}, {"size": "64"}, {"size": "1"}]}}}, "dtype": {"type": "DT_FLOAT"}}}, {"name": "StatefulPartitionedCall/functional_9_1/conv2d_189_1/Reshape", "op": "Const", "attr": {"value": {"tensor": {"dtype": "DT_FLOAT", "tensorShape": {"dim": [{"size": "1"}, {"size": "1"}, {"size": "1"}, {"size": "1"}]}}}, "dtype": {"type": "DT_FLOAT"}}}, {"name": "keras_tensor_288", "op": "Placeholder", "attr": {"shape": {"shape": {"dim": [{"size": "-1"}, {"size": "256"}, {"size": "256"}, {"size": "1"}]}}, "dtype": {"type": "DT_FLOAT"}}}, {"name": "StatefulPartitionedCall/functional_9_1/conv2d_171_1/Relu", "op": "_FusedConv2D", "input": ["keras_tensor_288", "StatefulPartitionedCall/functional_9_1/conv2d_171_1/convolution/ReadVariableOp", "StatefulPartitionedCall/functional_9_1/conv2d_171_1/Squeeze"], "device": "/device:CPU:0", "attr": {"num_host_args": {"i": "0"}, "data_format": {"s": "TkhXQw=="}, "filter_format": {"s": "SFdJTw=="}, "fused_ops": {"list": {"s": ["Qmlhc0FkZA==", "UmVsdQ=="]}}, "num_args": {"i": "1"}, "strides": {"list": {"i": ["1", "1", "1", "1"]}}, "TArgs": {"list": {"type": ["DT_FLOAT"]}}, "padding": {"s": "U0FNRQ=="}, "use_cudnn_on_gpu": {"b": true}, "leakyrelu_alpha": {"f": 0.2}, "epsilon": {"f": 0.0}, "T": {"type": "DT_FLOAT"}, "explicit_paddings": {"list": {}}, "dilations": {"list": {"i": ["1", "1", "1", "1"]}}}}, {"name": "StatefulPartitionedCall/functional_9_1/conv2d_172_1/Relu", "op": "_FusedConv2D", "input": ["StatefulPartitionedCall/functional_9_1/conv2d_171_1/Relu", "StatefulPartitionedCall/functional_9_1/conv2d_172_1/convolution/ReadVariableOp", "StatefulPartitionedCall/functional_9_1/conv2d_172_1/Squeeze"], "device": "/device:CPU:0", "attr": {"num_host_args": {"i": "0"}, "data_format": {"s": "TkhXQw=="}, "filter_format": {"s": "SFdJTw=="}, "fused_ops": {"list": {"s": ["Qmlhc0FkZA==", "UmVsdQ=="]}}, "num_args": {"i": "1"}, "strides": {"list": {"i": ["1", "1", "1", "1"]}}, "TArgs": {"list": {"type": ["DT_FLOAT"]}}, "padding": {"s": "U0FNRQ=="}, "use_cudnn_on_gpu": {"b": true}, "leakyrelu_alpha": {"f": 0.2}, "epsilon": {"f": 0.0}, "T": {"type": "DT_FLOAT"}, "explicit_paddings": {"list": {}}, "dilations": {"list": {"i": ["1", "1", "1", "1"]}}}}, {"name": "StatefulPartitionedCall/functional_9_1/max_pooling2d_36_1/MaxPool2d", "op": "MaxPool", "input": ["StatefulPartitionedCall/functional_9_1/conv2d_172_1/Relu"], "attr": {"padding": {"s": "VkFMSUQ="}, "data_format": {"s": "TkhXQw=="}, "T": {"type": "DT_FLOAT"}, "explicit_paddings": {"list": {}}, "ksize": {"list": {"i": ["1", "2", "2", "1"]}}, "strides": {"list": {"i": ["1", "2", "2", "1"]}}}}, {"name": "StatefulPartitionedCall/functional_9_1/conv2d_173_1/Relu", "op": "_FusedConv2D", "input": ["StatefulPartitionedCall/functional_9_1/max_pooling2d_36_1/MaxPool2d", "StatefulPartitionedCall/functional_9_1/conv2d_173_1/convolution/ReadVariableOp", "StatefulPartitionedCall/functional_9_1/conv2d_173_1/Squeeze"], "device": "/device:CPU:0", "attr": {"num_host_args": {"i": "0"}, "data_format": {"s": "TkhXQw=="}, "filter_format": {"s": "SFdJTw=="}, "strides": {"list": {"i": ["1", "1", "1", "1"]}}, "num_args": {"i": "1"}, "fused_ops": {"list": {"s": ["Qmlhc0FkZA==", "UmVsdQ=="]}}, "TArgs": {"list": {"type": ["DT_FLOAT"]}}, "padding": {"s": "U0FNRQ=="}, "use_cudnn_on_gpu": {"b": true}, "leakyrelu_alpha": {"f": 0.2}, "epsilon": {"f": 0.0}, "T": {"type": "DT_FLOAT"}, "explicit_paddings": {"list": {}}, "dilations": {"list": {"i": ["1", "1", "1", "1"]}}}}, {"name": "StatefulPartitionedCall/functional_9_1/conv2d_174_1/Relu", "op": "_FusedConv2D", "input": ["StatefulPartitionedCall/functional_9_1/conv2d_173_1/Relu", "StatefulPartitionedCall/functional_9_1/conv2d_174_1/convolution/ReadVariableOp", "StatefulPartitionedCall/functional_9_1/conv2d_174_1/Squeeze"], "device": "/device:CPU:0", "attr": {"num_host_args": {"i": "0"}, "data_format": {"s": "TkhXQw=="}, "filter_format": {"s": "SFdJTw=="}, "strides": {"list": {"i": ["1", "1", "1", "1"]}}, "num_args": {"i": "1"}, "fused_ops": {"list": {"s": ["Qmlhc0FkZA==", "UmVsdQ=="]}}, "TArgs": {"list": {"type": ["DT_FLOAT"]}}, "padding": {"s": "U0FNRQ=="}, "use_cudnn_on_gpu": {"b": true}, "leakyrelu_alpha": {"f": 0.2}, "epsilon": {"f": 0.0}, "T": {"type": "DT_FLOAT"}, "explicit_paddings": {"list": {}}, "dilations": {"list": {"i": ["1", "1", "1", "1"]}}}}, {"name": "StatefulPartitionedCall/functional_9_1/max_pooling2d_37_1/MaxPool2d", "op": "MaxPool", "input": ["StatefulPartitionedCall/functional_9_1/conv2d_174_1/Relu"], "attr": {"ksize": {"list": {"i": ["1", "2", "2", "1"]}}, "data_format": {"s": "TkhXQw=="}, "T": {"type": "DT_FLOAT"}, "explicit_paddings": {"list": {}}, "padding": {"s": "VkFMSUQ="}, "strides": {"list": {"i": ["1", "2", "2", "1"]}}}}, {"name": "StatefulPartitionedCall/functional_9_1/conv2d_175_1/Relu", "op": "_FusedConv2D", "input": ["StatefulPartitionedCall/functional_9_1/max_pooling2d_37_1/MaxPool2d", "StatefulPartitionedCall/functional_9_1/conv2d_175_1/convolution/ReadVariableOp", "StatefulPartitionedCall/functional_9_1/conv2d_175_1/Squeeze"], "device": "/device:CPU:0", "attr": {"num_host_args": {"i": "0"}, "data_format": {"s": "TkhXQw=="}, "filter_format": {"s": "SFdJTw=="}, "fused_ops": {"list": {"s": ["Qmlhc0FkZA==", "UmVsdQ=="]}}, "num_args": {"i": "1"}, "strides": {"list": {"i": ["1", "1", "1", "1"]}}, "TArgs": {"list": {"type": ["DT_FLOAT"]}}, "padding": {"s": "U0FNRQ=="}, "use_cudnn_on_gpu": {"b": true}, "leakyrelu_alpha": {"f": 0.2}, "epsilon": {"f": 0.0}, "T": {"type": "DT_FLOAT"}, "explicit_paddings": {"list": {}}, "dilations": {"list": {"i": ["1", "1", "1", "1"]}}}}, {"name": "StatefulPartitionedCall/functional_9_1/conv2d_176_1/Relu", "op": "_FusedConv2D", "input": ["StatefulPartitionedCall/functional_9_1/conv2d_175_1/Relu", "StatefulPartitionedCall/functional_9_1/conv2d_176_1/convolution/ReadVariableOp", "StatefulPartitionedCall/functional_9_1/conv2d_176_1/Squeeze"], "device": "/device:CPU:0", "attr": {"num_host_args": {"i": "0"}, "data_format": {"s": "TkhXQw=="}, "filter_format": {"s": "SFdJTw=="}, "fused_ops": {"list": {"s": ["Qmlhc0FkZA==", "UmVsdQ=="]}}, "num_args": {"i": "1"}, "strides": {"list": {"i": ["1", "1", "1", "1"]}}, "TArgs": {"list": {"type": ["DT_FLOAT"]}}, "padding": {"s": "U0FNRQ=="}, "use_cudnn_on_gpu": {"b": true}, "leakyrelu_alpha": {"f": 0.2}, "epsilon": {"f": 0.0}, "T": {"type": "DT_FLOAT"}, "explicit_paddings": {"list": {}}, "dilations": {"list": {"i": ["1", "1", "1", "1"]}}}}, {"name": "StatefulPartitionedCall/functional_9_1/max_pooling2d_38_1/MaxPool2d", "op": "MaxPool", "input": ["StatefulPartitionedCall/functional_9_1/conv2d_176_1/Relu"], "attr": {"ksize": {"list": {"i": ["1", "2", "2", "1"]}}, "data_format": {"s": "TkhXQw=="}, "T": {"type": "DT_FLOAT"}, "explicit_paddings": {"list": {}}, "padding": {"s": "VkFMSUQ="}, "strides": {"list": {"i": ["1", "2", "2", "1"]}}}}, {"name": "StatefulPartitionedCall/functional_9_1/conv2d_177_1/Relu", "op": "_FusedConv2D", "input": ["StatefulPartitionedCall/functional_9_1/max_pooling2d_38_1/MaxPool2d", "StatefulPartitionedCall/functional_9_1/conv2d_177_1/convolution/ReadVariableOp", "StatefulPartitionedCall/functional_9_1/conv2d_177_1/Squeeze"], "device": "/device:CPU:0", "attr": {"num_host_args": {"i": "0"}, "data_format": {"s": "TkhXQw=="}, "filter_format": {"s": "SFdJTw=="}, "fused_ops": {"list": {"s": ["Qmlhc0FkZA==", "UmVsdQ=="]}}, "num_args": {"i": "1"}, "strides": {"list": {"i": ["1", "1", "1", "1"]}}, "TArgs": {"list": {"type": ["DT_FLOAT"]}}, "padding": {"s": "U0FNRQ=="}, "use_cudnn_on_gpu": {"b": true}, "leakyrelu_alpha": {"f": 0.2}, "epsilon": {"f": 0.0}, "T": {"type": "DT_FLOAT"}, "explicit_paddings": {"list": {}}, "dilations": {"list": {"i": ["1", "1", "1", "1"]}}}}, {"name": "StatefulPartitionedCall/functional_9_1/conv2d_178_1/Relu", "op": "_FusedConv2D", "input": ["StatefulPartitionedCall/functional_9_1/conv2d_177_1/Relu", "StatefulPartitionedCall/functional_9_1/conv2d_178_1/convolution/ReadVariableOp", "StatefulPartitionedCall/functional_9_1/conv2d_178_1/Squeeze"], "device": "/device:CPU:0", "attr": {"num_host_args": {"i": "0"}, "data_format": {"s": "TkhXQw=="}, "filter_format": {"s": "SFdJTw=="}, "fused_ops": {"list": {"s": ["Qmlhc0FkZA==", "UmVsdQ=="]}}, "num_args": {"i": "1"}, "strides": {"list": {"i": ["1", "1", "1", "1"]}}, "TArgs": {"list": {"type": ["DT_FLOAT"]}}, "padding": {"s": "U0FNRQ=="}, "use_cudnn_on_gpu": {"b": true}, "leakyrelu_alpha": {"f": 0.2}, "epsilon": {"f": 0.0}, "T": {"type": "DT_FLOAT"}, "explicit_paddings": {"list": {}}, "dilations": {"list": {"i": ["1", "1", "1", "1"]}}}}, {"name": "StatefulPartitionedCall/functional_9_1/max_pooling2d_39_1/MaxPool2d", "op": "MaxPool", "input": ["StatefulPartitionedCall/functional_9_1/conv2d_178_1/Relu"], "attr": {"ksize": {"list": {"i": ["1", "2", "2", "1"]}}, "data_format": {"s": "TkhXQw=="}, "T": {"type": "DT_FLOAT"}, "explicit_paddings": {"list": {}}, "padding": {"s": "VkFMSUQ="}, "strides": {"list": {"i": ["1", "2", "2", "1"]}}}}, {"name": "StatefulPartitionedCall/functional_9_1/conv2d_179_1/Relu", "op": "_FusedConv2D", "input": ["StatefulPartitionedCall/functional_9_1/max_pooling2d_39_1/MaxPool2d", "StatefulPartitionedCall/functional_9_1/conv2d_179_1/convolution/ReadVariableOp", "StatefulPartitionedCall/functional_9_1/conv2d_179_1/Squeeze"], "device": "/device:CPU:0", "attr": {"num_host_args": {"i": "0"}, "data_format": {"s": "TkhXQw=="}, "filter_format": {"s": "SFdJTw=="}, "strides": {"list": {"i": ["1", "1", "1", "1"]}}, "num_args": {"i": "1"}, "fused_ops": {"list": {"s": ["Qmlhc0FkZA==", "UmVsdQ=="]}}, "TArgs": {"list": {"type": ["DT_FLOAT"]}}, "padding": {"s": "U0FNRQ=="}, "use_cudnn_on_gpu": {"b": true}, "leakyrelu_alpha": {"f": 0.2}, "epsilon": {"f": 0.0}, "T": {"type": "DT_FLOAT"}, "explicit_paddings": {"list": {}}, "dilations": {"list": {"i": ["1", "1", "1", "1"]}}}}, {"name": "StatefulPartitionedCall/functional_9_1/conv2d_180_1/Relu", "op": "_FusedConv2D", "input": ["StatefulPartitionedCall/functional_9_1/conv2d_179_1/Relu", "StatefulPartitionedCall/functional_9_1/conv2d_180_1/convolution/ReadVariableOp", "StatefulPartitionedCall/functional_9_1/conv2d_180_1/Squeeze"], "device": "/device:CPU:0", "attr": {"num_host_args": {"i": "0"}, "data_format": {"s": "TkhXQw=="}, "filter_format": {"s": "SFdJTw=="}, "fused_ops": {"list": {"s": ["Qmlhc0FkZA==", "UmVsdQ=="]}}, "num_args": {"i": "1"}, "strides": {"list": {"i": ["1", "1", "1", "1"]}}, "TArgs": {"list": {"type": ["DT_FLOAT"]}}, "padding": {"s": "U0FNRQ=="}, "use_cudnn_on_gpu": {"b": true}, "leakyrelu_alpha": {"f": 0.2}, "epsilon": {"f": 0.0}, "T": {"type": "DT_FLOAT"}, "explicit_paddings": {"list": {}}, "dilations": {"list": {"i": ["1", "1", "1", "1"]}}}}, {"name": "StatefulPartitionedCall/functional_9_1/conv2d_transpose_36_1/Shape", "op": "Shape", "input": ["StatefulPartitionedCall/functional_9_1/conv2d_180_1/Relu"], "attr": {"T": {"type": "DT_FLOAT"}, "out_type": {"type": "DT_INT32"}}, "experimentalType": {"typeId": "TFT_PRODUCT", "args": [{"typeId": "TFT_SHAPE_TENSOR", "args": [{"typeId": "TFT_INT32"}]}]}}, {"name": "StatefulPartitionedCall/functional_9_1/conv2d_transpose_36_1/strided_slice", "op": "StridedSlice", "input": ["StatefulPartitionedCall/functional_9_1/conv2d_transpose_36_1/Shape", "StatefulPartitionedCall/functional_9_1/conv2d_transpose_36_1/strided_slice/stack", "StatefulPartitionedCall/functional_9_1/conv2d_transpose_36_1/strided_slice/stack_1", "StatefulPartitionedCall/functional_9_1/conv2d_transpose_36_1/strided_slice/stack_2"], "attr": {"shrink_axis_mask": {"i": "1"}, "new_axis_mask": {"i": "0"}, "Index": {"type": "DT_INT32"}, "begin_mask": {"i": "0"}, "T": {"type": "DT_INT32"}, "end_mask": {"i": "0"}, "ellipsis_mask": {"i": "0"}}}, {"name": "StatefulPartitionedCall/functional_9_1/conv2d_transpose_36_1/conv_transpose/input_sizes", "op": "Pack", "input": ["StatefulPartitionedCall/functional_9_1/conv2d_transpose_36_1/strided_slice", "StatefulPartitionedCall/functional_9_1/conv2d_transpose_36_1/conv_transpose/input_sizes/1", "StatefulPartitionedCall/functional_9_1/conv2d_transpose_36_1/conv_transpose/input_sizes/2", "StatefulPartitionedCall/functional_9_1/conv2d_transpose_36_1/conv_transpose/input_sizes/3"], "attr": {"N": {"i": "4"}, "axis": {"i": "0"}, "T": {"type": "DT_INT32"}}}, {"name": "StatefulPartitionedCall/functional_9_1/conv2d_transpose_36_1/conv_transpose", "op": "Conv2DBackpropInput", "input": ["StatefulPartitionedCall/functional_9_1/conv2d_transpose_36_1/conv_transpose/input_sizes", "StatefulPartitionedCall/functional_9_1/conv2d_transpose_36_1/conv_transpose/ReadVariableOp", "StatefulPartitionedCall/functional_9_1/conv2d_180_1/Relu"], "attr": {"padding": {"s": "U0FNRQ=="}, "data_format": {"s": "TkhXQw=="}, "use_cudnn_on_gpu": {"b": true}, "strides": {"list": {"i": ["1", "2", "2", "1"]}}, "T": {"type": "DT_FLOAT"}, "explicit_paddings": {"list": {}}, "dilations": {"list": {"i": ["1", "1", "1", "1"]}}}}, {"name": "StatefulPartitionedCall/functional_9_1/conv2d_transpose_36_1/BiasAdd", "op": "BiasAdd", "input": ["StatefulPartitionedCall/functional_9_1/conv2d_transpose_36_1/conv_transpose", "StatefulPartitionedCall/functional_9_1/conv2d_transpose_36_1/Squeeze"], "attr": {"data_format": {"s": "TkhXQw=="}, "T": {"type": "DT_FLOAT"}}}, {"name": "StatefulPartitionedCall/functional_9_1/concatenate_36_1/concat", "op": "ConcatV2", "input": ["StatefulPartitionedCall/functional_9_1/conv2d_transpose_36_1/BiasAdd", "StatefulPartitionedCall/functional_9_1/conv2d_178_1/Relu", "StatefulPartitionedCall/functional_9_1/concatenate_36_1/concat/axis"], "attr": {"N": {"i": "2"}, "T": {"type": "DT_FLOAT"}, "Tidx": {"type": "DT_INT32"}}}, {"name": "StatefulPartitionedCall/functional_9_1/conv2d_181_1/Relu", "op": "_FusedConv2D", "input": ["StatefulPartitionedCall/functional_9_1/concatenate_36_1/concat", "StatefulPartitionedCall/functional_9_1/conv2d_181_1/convolution/ReadVariableOp", "StatefulPartitionedCall/functional_9_1/conv2d_181_1/Squeeze"], "device": "/device:CPU:0", "attr": {"num_host_args": {"i": "0"}, "data_format": {"s": "TkhXQw=="}, "filter_format": {"s": "SFdJTw=="}, "fused_ops": {"list": {"s": ["Qmlhc0FkZA==", "UmVsdQ=="]}}, "num_args": {"i": "1"}, "strides": {"list": {"i": ["1", "1", "1", "1"]}}, "TArgs": {"list": {"type": ["DT_FLOAT"]}}, "padding": {"s": "U0FNRQ=="}, "use_cudnn_on_gpu": {"b": true}, "leakyrelu_alpha": {"f": 0.2}, "epsilon": {"f": 0.0}, "T": {"type": "DT_FLOAT"}, "explicit_paddings": {"list": {}}, "dilations": {"list": {"i": ["1", "1", "1", "1"]}}}}, {"name": "StatefulPartitionedCall/functional_9_1/conv2d_182_1/Relu", "op": "_FusedConv2D", "input": ["StatefulPartitionedCall/functional_9_1/conv2d_181_1/Relu", "StatefulPartitionedCall/functional_9_1/conv2d_182_1/convolution/ReadVariableOp", "StatefulPartitionedCall/functional_9_1/conv2d_182_1/Squeeze"], "device": "/device:CPU:0", "attr": {"num_host_args": {"i": "0"}, "data_format": {"s": "TkhXQw=="}, "filter_format": {"s": "SFdJTw=="}, "strides": {"list": {"i": ["1", "1", "1", "1"]}}, "num_args": {"i": "1"}, "fused_ops": {"list": {"s": ["Qmlhc0FkZA==", "UmVsdQ=="]}}, "TArgs": {"list": {"type": ["DT_FLOAT"]}}, "padding": {"s": "U0FNRQ=="}, "use_cudnn_on_gpu": {"b": true}, "leakyrelu_alpha": {"f": 0.2}, "epsilon": {"f": 0.0}, "T": {"type": "DT_FLOAT"}, "explicit_paddings": {"list": {}}, "dilations": {"list": {"i": ["1", "1", "1", "1"]}}}}, {"name": "StatefulPartitionedCall/functional_9_1/conv2d_transpose_37_1/Shape", "op": "Shape", "input": ["StatefulPartitionedCall/functional_9_1/conv2d_182_1/Relu"], "attr": {"T": {"type": "DT_FLOAT"}, "out_type": {"type": "DT_INT32"}}, "experimentalType": {"typeId": "TFT_PRODUCT", "args": [{"typeId": "TFT_SHAPE_TENSOR", "args": [{"typeId": "TFT_INT32"}]}]}}, {"name": "StatefulPartitionedCall/functional_9_1/conv2d_transpose_37_1/strided_slice", "op": "StridedSlice", "input": ["StatefulPartitionedCall/functional_9_1/conv2d_transpose_37_1/Shape", "StatefulPartitionedCall/functional_9_1/conv2d_transpose_37_1/strided_slice/stack", "StatefulPartitionedCall/functional_9_1/conv2d_transpose_37_1/strided_slice/stack_1", "StatefulPartitionedCall/functional_9_1/conv2d_transpose_37_1/strided_slice/stack_2"], "attr": {"shrink_axis_mask": {"i": "1"}, "Index": {"type": "DT_INT32"}, "new_axis_mask": {"i": "0"}, "begin_mask": {"i": "0"}, "end_mask": {"i": "0"}, "T": {"type": "DT_INT32"}, "ellipsis_mask": {"i": "0"}}}, {"name": "StatefulPartitionedCall/functional_9_1/conv2d_transpose_37_1/conv_transpose/input_sizes", "op": "Pack", "input": ["StatefulPartitionedCall/functional_9_1/conv2d_transpose_37_1/strided_slice", "StatefulPartitionedCall/functional_9_1/conv2d_transpose_37_1/conv_transpose/input_sizes/1", "StatefulPartitionedCall/functional_9_1/conv2d_transpose_37_1/conv_transpose/input_sizes/2", "StatefulPartitionedCall/functional_9_1/conv2d_transpose_37_1/conv_transpose/input_sizes/3"], "attr": {"N": {"i": "4"}, "axis": {"i": "0"}, "T": {"type": "DT_INT32"}}}, {"name": "StatefulPartitionedCall/functional_9_1/conv2d_transpose_37_1/conv_transpose", "op": "Conv2DBackpropInput", "input": ["StatefulPartitionedCall/functional_9_1/conv2d_transpose_37_1/conv_transpose/input_sizes", "StatefulPartitionedCall/functional_9_1/conv2d_transpose_37_1/conv_transpose/ReadVariableOp", "StatefulPartitionedCall/functional_9_1/conv2d_182_1/Relu"], "attr": {"padding": {"s": "U0FNRQ=="}, "data_format": {"s": "TkhXQw=="}, "use_cudnn_on_gpu": {"b": true}, "strides": {"list": {"i": ["1", "2", "2", "1"]}}, "T": {"type": "DT_FLOAT"}, "explicit_paddings": {"list": {}}, "dilations": {"list": {"i": ["1", "1", "1", "1"]}}}}, {"name": "StatefulPartitionedCall/functional_9_1/conv2d_transpose_37_1/BiasAdd", "op": "BiasAdd", "input": ["StatefulPartitionedCall/functional_9_1/conv2d_transpose_37_1/conv_transpose", "StatefulPartitionedCall/functional_9_1/conv2d_transpose_37_1/Squeeze"], "attr": {"data_format": {"s": "TkhXQw=="}, "T": {"type": "DT_FLOAT"}}}, {"name": "StatefulPartitionedCall/functional_9_1/concatenate_37_1/concat", "op": "ConcatV2", "input": ["StatefulPartitionedCall/functional_9_1/conv2d_transpose_37_1/BiasAdd", "StatefulPartitionedCall/functional_9_1/conv2d_176_1/Relu", "StatefulPartitionedCall/functional_9_1/concatenate_37_1/concat/axis"], "attr": {"N": {"i": "2"}, "Tidx": {"type": "DT_INT32"}, "T": {"type": "DT_FLOAT"}}}, {"name": "StatefulPartitionedCall/functional_9_1/conv2d_183_1/Relu", "op": "_FusedConv2D", "input": ["StatefulPartitionedCall/functional_9_1/concatenate_37_1/concat", "StatefulPartitionedCall/functional_9_1/conv2d_183_1/convolution/ReadVariableOp", "StatefulPartitionedCall/functional_9_1/conv2d_183_1/Squeeze"], "device": "/device:CPU:0", "attr": {"num_host_args": {"i": "0"}, "data_format": {"s": "TkhXQw=="}, "filter_format": {"s": "SFdJTw=="}, "fused_ops": {"list": {"s": ["Qmlhc0FkZA==", "UmVsdQ=="]}}, "num_args": {"i": "1"}, "strides": {"list": {"i": ["1", "1", "1", "1"]}}, "TArgs": {"list": {"type": ["DT_FLOAT"]}}, "padding": {"s": "U0FNRQ=="}, "use_cudnn_on_gpu": {"b": true}, "leakyrelu_alpha": {"f": 0.2}, "epsilon": {"f": 0.0}, "T": {"type": "DT_FLOAT"}, "explicit_paddings": {"list": {}}, "dilations": {"list": {"i": ["1", "1", "1", "1"]}}}}, {"name": "StatefulPartitionedCall/functional_9_1/conv2d_184_1/Relu", "op": "_FusedConv2D", "input": ["StatefulPartitionedCall/functional_9_1/conv2d_183_1/Relu", "StatefulPartitionedCall/functional_9_1/conv2d_184_1/convolution/ReadVariableOp", "StatefulPartitionedCall/functional_9_1/conv2d_184_1/Squeeze"], "device": "/device:CPU:0", "attr": {"num_host_args": {"i": "0"}, "data_format": {"s": "TkhXQw=="}, "filter_format": {"s": "SFdJTw=="}, "fused_ops": {"list": {"s": ["Qmlhc0FkZA==", "UmVsdQ=="]}}, "num_args": {"i": "1"}, "strides": {"list": {"i": ["1", "1", "1", "1"]}}, "TArgs": {"list": {"type": ["DT_FLOAT"]}}, "padding": {"s": "U0FNRQ=="}, "use_cudnn_on_gpu": {"b": true}, "leakyrelu_alpha": {"f": 0.2}, "epsilon": {"f": 0.0}, "T": {"type": "DT_FLOAT"}, "explicit_paddings": {"list": {}}, "dilations": {"list": {"i": ["1", "1", "1", "1"]}}}}, {"name": "StatefulPartitionedCall/functional_9_1/conv2d_transpose_38_1/Shape", "op": "Shape", "input": ["StatefulPartitionedCall/functional_9_1/conv2d_184_1/Relu"], "attr": {"T": {"type": "DT_FLOAT"}, "out_type": {"type": "DT_INT32"}}, "experimentalType": {"typeId": "TFT_PRODUCT", "args": [{"typeId": "TFT_SHAPE_TENSOR", "args": [{"typeId": "TFT_INT32"}]}]}}, {"name": "StatefulPartitionedCall/functional_9_1/conv2d_transpose_38_1/strided_slice", "op": "StridedSlice", "input": ["StatefulPartitionedCall/functional_9_1/conv2d_transpose_38_1/Shape", "StatefulPartitionedCall/functional_9_1/conv2d_transpose_38_1/strided_slice/stack", "StatefulPartitionedCall/functional_9_1/conv2d_transpose_38_1/strided_slice/stack_1", "StatefulPartitionedCall/functional_9_1/conv2d_transpose_38_1/strided_slice/stack_2"], "attr": {"shrink_axis_mask": {"i": "1"}, "Index": {"type": "DT_INT32"}, "new_axis_mask": {"i": "0"}, "begin_mask": {"i": "0"}, "T": {"type": "DT_INT32"}, "end_mask": {"i": "0"}, "ellipsis_mask": {"i": "0"}}}, {"name": "StatefulPartitionedCall/functional_9_1/conv2d_transpose_38_1/conv_transpose/input_sizes", "op": "Pack", "input": ["StatefulPartitionedCall/functional_9_1/conv2d_transpose_38_1/strided_slice", "StatefulPartitionedCall/functional_9_1/conv2d_transpose_38_1/conv_transpose/input_sizes/1", "StatefulPartitionedCall/functional_9_1/conv2d_transpose_38_1/conv_transpose/input_sizes/2", "StatefulPartitionedCall/functional_9_1/conv2d_transpose_38_1/conv_transpose/input_sizes/3"], "attr": {"N": {"i": "4"}, "axis": {"i": "0"}, "T": {"type": "DT_INT32"}}}, {"name": "StatefulPartitionedCall/functional_9_1/conv2d_transpose_38_1/conv_transpose", "op": "Conv2DBackpropInput", "input": ["StatefulPartitionedCall/functional_9_1/conv2d_transpose_38_1/conv_transpose/input_sizes", "StatefulPartitionedCall/functional_9_1/conv2d_transpose_38_1/conv_transpose/ReadVariableOp", "StatefulPartitionedCall/functional_9_1/conv2d_184_1/Relu"], "attr": {"padding": {"s": "U0FNRQ=="}, "data_format": {"s": "TkhXQw=="}, "use_cudnn_on_gpu": {"b": true}, "strides": {"list": {"i": ["1", "2", "2", "1"]}}, "T": {"type": "DT_FLOAT"}, "explicit_paddings": {"list": {}}, "dilations": {"list": {"i": ["1", "1", "1", "1"]}}}}, {"name": "StatefulPartitionedCall/functional_9_1/conv2d_transpose_38_1/BiasAdd", "op": "BiasAdd", "input": ["StatefulPartitionedCall/functional_9_1/conv2d_transpose_38_1/conv_transpose", "StatefulPartitionedCall/functional_9_1/conv2d_transpose_38_1/Squeeze"], "attr": {"data_format": {"s": "TkhXQw=="}, "T": {"type": "DT_FLOAT"}}}, {"name": "StatefulPartitionedCall/functional_9_1/concatenate_38_1/concat", "op": "ConcatV2", "input": ["StatefulPartitionedCall/functional_9_1/conv2d_transpose_38_1/BiasAdd", "StatefulPartitionedCall/functional_9_1/conv2d_174_1/Relu", "StatefulPartitionedCall/functional_9_1/concatenate_38_1/concat/axis"], "attr": {"N": {"i": "2"}, "Tidx": {"type": "DT_INT32"}, "T": {"type": "DT_FLOAT"}}}, {"name": "StatefulPartitionedCall/functional_9_1/conv2d_185_1/Relu", "op": "_FusedConv2D", "input": ["StatefulPartitionedCall/functional_9_1/concatenate_38_1/concat", "StatefulPartitionedCall/functional_9_1/conv2d_185_1/convolution/ReadVariableOp", "StatefulPartitionedCall/functional_9_1/conv2d_185_1/Squeeze"], "device": "/device:CPU:0", "attr": {"num_host_args": {"i": "0"}, "data_format": {"s": "TkhXQw=="}, "filter_format": {"s": "SFdJTw=="}, "fused_ops": {"list": {"s": ["Qmlhc0FkZA==", "UmVsdQ=="]}}, "num_args": {"i": "1"}, "strides": {"list": {"i": ["1", "1", "1", "1"]}}, "TArgs": {"list": {"type": ["DT_FLOAT"]}}, "padding": {"s": "U0FNRQ=="}, "use_cudnn_on_gpu": {"b": true}, "leakyrelu_alpha": {"f": 0.2}, "epsilon": {"f": 0.0}, "T": {"type": "DT_FLOAT"}, "explicit_paddings": {"list": {}}, "dilations": {"list": {"i": ["1", "1", "1", "1"]}}}}, {"name": "StatefulPartitionedCall/functional_9_1/conv2d_186_1/Relu", "op": "_FusedConv2D", "input": ["StatefulPartitionedCall/functional_9_1/conv2d_185_1/Relu", "StatefulPartitionedCall/functional_9_1/conv2d_186_1/convolution/ReadVariableOp", "StatefulPartitionedCall/functional_9_1/conv2d_186_1/Squeeze"], "device": "/device:CPU:0", "attr": {"num_host_args": {"i": "0"}, "data_format": {"s": "TkhXQw=="}, "filter_format": {"s": "SFdJTw=="}, "fused_ops": {"list": {"s": ["Qmlhc0FkZA==", "UmVsdQ=="]}}, "num_args": {"i": "1"}, "strides": {"list": {"i": ["1", "1", "1", "1"]}}, "TArgs": {"list": {"type": ["DT_FLOAT"]}}, "padding": {"s": "U0FNRQ=="}, "use_cudnn_on_gpu": {"b": true}, "leakyrelu_alpha": {"f": 0.2}, "epsilon": {"f": 0.0}, "T": {"type": "DT_FLOAT"}, "explicit_paddings": {"list": {}}, "dilations": {"list": {"i": ["1", "1", "1", "1"]}}}}, {"name": "StatefulPartitionedCall/functional_9_1/conv2d_transpose_39_1/Shape", "op": "Shape", "input": ["StatefulPartitionedCall/functional_9_1/conv2d_186_1/Relu"], "attr": {"T": {"type": "DT_FLOAT"}, "out_type": {"type": "DT_INT32"}}, "experimentalType": {"typeId": "TFT_PRODUCT", "args": [{"typeId": "TFT_SHAPE_TENSOR", "args": [{"typeId": "TFT_INT32"}]}]}}, {"name": "StatefulPartitionedCall/functional_9_1/conv2d_transpose_39_1/strided_slice", "op": "StridedSlice", "input": ["StatefulPartitionedCall/functional_9_1/conv2d_transpose_39_1/Shape", "StatefulPartitionedCall/functional_9_1/conv2d_transpose_39_1/strided_slice/stack", "StatefulPartitionedCall/functional_9_1/conv2d_transpose_39_1/strided_slice/stack_1", "StatefulPartitionedCall/functional_9_1/conv2d_transpose_39_1/strided_slice/stack_2"], "attr": {"shrink_axis_mask": {"i": "1"}, "Index": {"type": "DT_INT32"}, "new_axis_mask": {"i": "0"}, "begin_mask": {"i": "0"}, "end_mask": {"i": "0"}, "T": {"type": "DT_INT32"}, "ellipsis_mask": {"i": "0"}}}, {"name": "StatefulPartitionedCall/functional_9_1/conv2d_transpose_39_1/conv_transpose/input_sizes", "op": "Pack", "input": ["StatefulPartitionedCall/functional_9_1/conv2d_transpose_39_1/strided_slice", "StatefulPartitionedCall/functional_9_1/conv2d_transpose_39_1/conv_transpose/input_sizes/1", "StatefulPartitionedCall/functional_9_1/conv2d_transpose_39_1/conv_transpose/input_sizes/2", "StatefulPartitionedCall/functional_9_1/conv2d_transpose_39_1/conv_transpose/input_sizes/3"], "attr": {"N": {"i": "4"}, "axis": {"i": "0"}, "T": {"type": "DT_INT32"}}}, {"name": "StatefulPartitionedCall/functional_9_1/conv2d_transpose_39_1/conv_transpose", "op": "Conv2DBackpropInput", "input": ["StatefulPartitionedCall/functional_9_1/conv2d_transpose_39_1/conv_transpose/input_sizes", "StatefulPartitionedCall/functional_9_1/conv2d_transpose_39_1/conv_transpose/ReadVariableOp", "StatefulPartitionedCall/functional_9_1/conv2d_186_1/Relu"], "attr": {"padding": {"s": "U0FNRQ=="}, "data_format": {"s": "TkhXQw=="}, "use_cudnn_on_gpu": {"b": true}, "strides": {"list": {"i": ["1", "2", "2", "1"]}}, "T": {"type": "DT_FLOAT"}, "explicit_paddings": {"list": {}}, "dilations": {"list": {"i": ["1", "1", "1", "1"]}}}}, {"name": "StatefulPartitionedCall/functional_9_1/conv2d_transpose_39_1/BiasAdd", "op": "BiasAdd", "input": ["StatefulPartitionedCall/functional_9_1/conv2d_transpose_39_1/conv_transpose", "StatefulPartitionedCall/functional_9_1/conv2d_transpose_39_1/Squeeze"], "attr": {"data_format": {"s": "TkhXQw=="}, "T": {"type": "DT_FLOAT"}}}, {"name": "StatefulPartitionedCall/functional_9_1/concatenate_39_1/concat", "op": "ConcatV2", "input": ["StatefulPartitionedCall/functional_9_1/conv2d_transpose_39_1/BiasAdd", "StatefulPartitionedCall/functional_9_1/conv2d_172_1/Relu", "StatefulPartitionedCall/functional_9_1/concatenate_39_1/concat/axis"], "attr": {"N": {"i": "2"}, "Tidx": {"type": "DT_INT32"}, "T": {"type": "DT_FLOAT"}}}, {"name": "StatefulPartitionedCall/functional_9_1/conv2d_187_1/Relu", "op": "_FusedConv2D", "input": ["StatefulPartitionedCall/functional_9_1/concatenate_39_1/concat", "StatefulPartitionedCall/functional_9_1/conv2d_187_1/convolution/ReadVariableOp", "StatefulPartitionedCall/functional_9_1/conv2d_187_1/Squeeze"], "device": "/device:CPU:0", "attr": {"num_host_args": {"i": "0"}, "data_format": {"s": "TkhXQw=="}, "filter_format": {"s": "SFdJTw=="}, "fused_ops": {"list": {"s": ["Qmlhc0FkZA==", "UmVsdQ=="]}}, "num_args": {"i": "1"}, "strides": {"list": {"i": ["1", "1", "1", "1"]}}, "TArgs": {"list": {"type": ["DT_FLOAT"]}}, "padding": {"s": "U0FNRQ=="}, "use_cudnn_on_gpu": {"b": true}, "leakyrelu_alpha": {"f": 0.2}, "epsilon": {"f": 0.0}, "T": {"type": "DT_FLOAT"}, "explicit_paddings": {"list": {}}, "dilations": {"list": {"i": ["1", "1", "1", "1"]}}}}, {"name": "StatefulPartitionedCall/functional_9_1/conv2d_188_1/Relu", "op": "_FusedConv2D", "input": ["StatefulPartitionedCall/functional_9_1/conv2d_187_1/Relu", "StatefulPartitionedCall/functional_9_1/conv2d_188_1/convolution/ReadVariableOp", "StatefulPartitionedCall/functional_9_1/conv2d_188_1/Squeeze"], "device": "/device:CPU:0", "attr": {"num_host_args": {"i": "0"}, "data_format": {"s": "TkhXQw=="}, "filter_format": {"s": "SFdJTw=="}, "fused_ops": {"list": {"s": ["Qmlhc0FkZA==", "UmVsdQ=="]}}, "num_args": {"i": "1"}, "strides": {"list": {"i": ["1", "1", "1", "1"]}}, "TArgs": {"list": {"type": ["DT_FLOAT"]}}, "padding": {"s": "U0FNRQ=="}, "use_cudnn_on_gpu": {"b": true}, "leakyrelu_alpha": {"f": 0.2}, "epsilon": {"f": 0.0}, "T": {"type": "DT_FLOAT"}, "explicit_paddings": {"list": {}}, "dilations": {"list": {"i": ["1", "1", "1", "1"]}}}}, {"name": "StatefulPartitionedCall/functional_9_1/conv2d_189_1/Add", "op": "_FusedConv2D", "input": ["StatefulPartitionedCall/functional_9_1/conv2d_188_1/Relu", "StatefulPartitionedCall/functional_9_1/conv2d_189_1/convolution/ReadVariableOp", "StatefulPartitionedCall/functional_9_1/conv2d_189_1/Reshape"], "device": "/device:CPU:0", "attr": {"num_host_args": {"i": "0"}, "data_format": {"s": "TkhXQw=="}, "filter_format": {"s": "SFdJTw=="}, "fused_ops": {"list": {"s": ["Qmlhc0FkZA=="]}}, "num_args": {"i": "1"}, "strides": {"list": {"i": ["1", "1", "1", "1"]}}, "TArgs": {"list": {"type": ["DT_FLOAT"]}}, "padding": {"s": "VkFMSUQ="}, "use_cudnn_on_gpu": {"b": true}, "leakyrelu_alpha": {"f": 0.2}, "epsilon": {"f": 0.0}, "T": {"type": "DT_FLOAT"}, "explicit_paddings": {"list": {}}, "dilations": {"list": {"i": ["1", "1", "1", "1"]}}}}, {"name": "StatefulPartitionedCall/functional_9_1/conv2d_189_1/Sigmoid", "op": "Sigmoid", "input": ["StatefulPartitionedCall/functional_9_1/conv2d_189_1/Add"], "attr": {"T": {"type": "DT_FLOAT"}}}, {"name": "Identity", "op": "Identity", "input": ["StatefulPartitionedCall/functional_9_1/conv2d_189_1/Sigmoid"], "attr": {"T": {"type": "DT_FLOAT"}}}], "library": {}, "versions": {"producer": 1994}}, "weightsManifest": [{"paths": ["group1-shard1of30.bin", "group1-shard2of30.bin", "group1-shard3of30.bin", "group1-shard4of30.bin", "group1-shard5of30.bin", "group1-shard6of30.bin", "group1-shard7of30.bin", "group1-shard8of30.bin", "group1-shard9of30.bin", "group1-shard10of30.bin", "group1-shard11of30.bin", "group1-shard12of30.bin", "group1-shard13of30.bin", "group1-shard14of30.bin", "group1-shard15of30.bin", "group1-shard16of30.bin", "group1-shard17of30.bin", "group1-shard18of30.bin", "group1-shard19of30.bin", "group1-shard20of30.bin", "group1-shard21of30.bin", "group1-shard22of30.bin", "group1-shard23of30.bin", "group1-shard24of30.bin", "group1-shard25of30.bin", "group1-shard26of30.bin", "group1-shard27of30.bin", "group1-shard28of30.bin", "group1-shard29of30.bin", "group1-shard30of30.bin"], "weights": [{"name": "StatefulPartitionedCall/functional_9_1/conv2d_transpose_39_1/strided_slice/stack", "shape": [1], "dtype": "int32"}, {"name": "StatefulPartitionedCall/functional_9_1/conv2d_transpose_39_1/strided_slice/stack_1", "shape": [1], "dtype": "int32"}, {"name": "StatefulPartitionedCall/functional_9_1/conv2d_transpose_39_1/strided_slice/stack_2", "shape": [1], "dtype": "int32"}, {"name": "StatefulPartitionedCall/functional_9_1/conv2d_transpose_39_1/conv_transpose/input_sizes/1", "shape": [], "dtype": "int32"}, {"name": "StatefulPartitionedCall/functional_9_1/conv2d_transpose_39_1/conv_transpose/input_sizes/2", "shape": [], "dtype": "int32"}, {"name": "StatefulPartitionedCall/functional_9_1/conv2d_transpose_39_1/conv_transpose/input_sizes/3", "shape": [], "dtype": "int32"}, {"name": "StatefulPartitionedCall/functional_9_1/conv2d_transpose_39_1/conv_transpose/ReadVariableOp", "shape": [2, 2, 64, 128], "dtype": "float32"}, {"name": "StatefulPartitionedCall/functional_9_1/conv2d_transpose_38_1/strided_slice/stack", "shape": [1], "dtype": "int32"}, {"name": "StatefulPartitionedCall/functional_9_1/conv2d_transpose_38_1/strided_slice/stack_1", "shape": [1], "dtype": "int32"}, {"name": "StatefulPartitionedCall/functional_9_1/conv2d_transpose_38_1/strided_slice/stack_2", "shape": [1], "dtype": "int32"}, {"name": "StatefulPartitionedCall/functional_9_1/conv2d_transpose_38_1/conv_transpose/input_sizes/1", "shape": [], "dtype": "int32"}, {"name": "StatefulPartitionedCall/functional_9_1/conv2d_transpose_38_1/conv_transpose/input_sizes/2", "shape": [], "dtype": "int32"}, {"name": "StatefulPartitionedCall/functional_9_1/conv2d_transpose_38_1/conv_transpose/input_sizes/3", "shape": [], "dtype": "int32"}, {"name": "StatefulPartitionedCall/functional_9_1/conv2d_transpose_38_1/conv_transpose/ReadVariableOp", "shape": [2, 2, 128, 256], "dtype": "float32"}, {"name": "StatefulPartitionedCall/functional_9_1/conv2d_transpose_37_1/strided_slice/stack", "shape": [1], "dtype": "int32"}, {"name": "StatefulPartitionedCall/functional_9_1/conv2d_transpose_37_1/strided_slice/stack_1", "shape": [1], "dtype": "int32"}, {"name": "StatefulPartitionedCall/functional_9_1/conv2d_transpose_37_1/strided_slice/stack_2", "shape": [1], "dtype": "int32"}, {"name": "StatefulPartitionedCall/functional_9_1/conv2d_transpose_37_1/conv_transpose/input_sizes/1", "shape": [], "dtype": "int32"}, {"name": "StatefulPartitionedCall/functional_9_1/conv2d_transpose_37_1/conv_transpose/input_sizes/2", "shape": [], "dtype": "int32"}, {"name": "StatefulPartitionedCall/functional_9_1/conv2d_transpose_37_1/conv_transpose/input_sizes/3", "shape": [], "dtype": "int32"}, {"name": "StatefulPartitionedCall/functional_9_1/conv2d_transpose_37_1/conv_transpose/ReadVariableOp", "shape": [2, 2, 256, 512], "dtype": "float32"}, {"name": "StatefulPartitionedCall/functional_9_1/conv2d_transpose_36_1/strided_slice/stack", "shape": [1], "dtype": "int32"}, {"name": "StatefulPartitionedCall/functional_9_1/conv2d_transpose_36_1/strided_slice/stack_1", "shape": [1], "dtype": "int32"}, {"name": "StatefulPartitionedCall/functional_9_1/conv2d_transpose_36_1/strided_slice/stack_2", "shape": [1], "dtype": "int32"}, {"name": "StatefulPartitionedCall/functional_9_1/conv2d_transpose_36_1/conv_transpose/input_sizes/1", "shape": [], "dtype": "int32"}, {"name": "StatefulPartitionedCall/functional_9_1/conv2d_transpose_36_1/conv_transpose/input_sizes/2", "shape": [], "dtype": "int32"}, {"name": "StatefulPartitionedCall/functional_9_1/conv2d_transpose_36_1/conv_transpose/input_sizes/3", "shape": [], "dtype": "int32"}, {"name": "StatefulPartitionedCall/functional_9_1/conv2d_transpose_36_1/conv_transpose/ReadVariableOp", "shape": [2, 2, 512, 1024], "dtype": "float32"}, {"name": "StatefulPartitionedCall/functional_9_1/conv2d_179_1/convolution/ReadVariableOp", "shape": [3, 3, 512, 1024], "dtype": "float32"}, {"name": "StatefulPartitionedCall/functional_9_1/conv2d_179_1/Squeeze", "shape": [1024], "dtype": "float32"}, {"name": "StatefulPartitionedCall/functional_9_1/conv2d_180_1/convolution/ReadVariableOp", "shape": [3, 3, 1024, 1024], "dtype": "float32"}, {"name": "StatefulPartitionedCall/functional_9_1/conv2d_180_1/Squeeze", "shape": [1024], "dtype": "float32"}, {"name": "StatefulPartitionedCall/functional_9_1/conv2d_transpose_36_1/Squeeze", "shape": [512], "dtype": "float32"}, {"name": "StatefulPartitionedCall/functional_9_1/conv2d_177_1/convolution/ReadVariableOp", "shape": [3, 3, 256, 512], "dtype": "float32"}, {"name": "StatefulPartitionedCall/functional_9_1/conv2d_177_1/Squeeze", "shape": [512], "dtype": "float32"}, {"name": "StatefulPartitionedCall/functional_9_1/conv2d_178_1/convolution/ReadVariableOp", "shape": [3, 3, 512, 512], "dtype": "float32"}, {"name": "StatefulPartitionedCall/functional_9_1/conv2d_178_1/Squeeze", "shape": [512], "dtype": "float32"}, {"name": "StatefulPartitionedCall/functional_9_1/concatenate_36_1/concat/axis", "shape": [], "dtype": "int32"}, {"name": "StatefulPartitionedCall/functional_9_1/conv2d_181_1/convolution/ReadVariableOp", "shape": [3, 3, 1024, 512], "dtype": "float32"}, {"name": "StatefulPartitionedCall/functional_9_1/conv2d_181_1/Squeeze", "shape": [512], "dtype": "float32"}, {"name": "StatefulPartitionedCall/functional_9_1/conv2d_182_1/convolution/ReadVariableOp", "shape": [3, 3, 512, 512], "dtype": "float32"}, {"name": "StatefulPartitionedCall/functional_9_1/conv2d_182_1/Squeeze", "shape": [512], "dtype": "float32"}, {"name": "StatefulPartitionedCall/functional_9_1/conv2d_transpose_37_1/Squeeze", "shape": [256], "dtype": "float32"}, {"name": "StatefulPartitionedCall/functional_9_1/conv2d_175_1/convolution/ReadVariableOp", "shape": [3, 3, 128, 256], "dtype": "float32"}, {"name": "StatefulPartitionedCall/functional_9_1/conv2d_175_1/Squeeze", "shape": [256], "dtype": "float32"}, {"name": "StatefulPartitionedCall/functional_9_1/conv2d_176_1/convolution/ReadVariableOp", "shape": [3, 3, 256, 256], "dtype": "float32"}, {"name": "StatefulPartitionedCall/functional_9_1/conv2d_176_1/Squeeze", "shape": [256], "dtype": "float32"}, {"name": "StatefulPartitionedCall/functional_9_1/concatenate_37_1/concat/axis", "shape": [], "dtype": "int32"}, {"name": "StatefulPartitionedCall/functional_9_1/conv2d_183_1/convolution/ReadVariableOp", "shape": [3, 3, 512, 256], "dtype": "float32"}, {"name": "StatefulPartitionedCall/functional_9_1/conv2d_183_1/Squeeze", "shape": [256], "dtype": "float32"}, {"name": "StatefulPartitionedCall/functional_9_1/conv2d_184_1/convolution/ReadVariableOp", "shape": [3, 3, 256, 256], "dtype": "float32"}, {"name": "StatefulPartitionedCall/functional_9_1/conv2d_184_1/Squeeze", "shape": [256], "dtype": "float32"}, {"name": "StatefulPartitionedCall/functional_9_1/conv2d_transpose_38_1/Squeeze", "shape": [128], "dtype": "float32"}, {"name": "StatefulPartitionedCall/functional_9_1/conv2d_173_1/convolution/ReadVariableOp", "shape": [3, 3, 64, 128], "dtype": "float32"}, {"name": "StatefulPartitionedCall/functional_9_1/conv2d_173_1/Squeeze", "shape": [128], "dtype": "float32"}, {"name": "StatefulPartitionedCall/functional_9_1/conv2d_174_1/convolution/ReadVariableOp", "shape": [3, 3, 128, 128], "dtype": "float32"}, {"name": "StatefulPartitionedCall/functional_9_1/conv2d_174_1/Squeeze", "shape": [128], "dtype": "float32"}, {"name": "StatefulPartitionedCall/functional_9_1/concatenate_38_1/concat/axis", "shape": [], "dtype": "int32"}, {"name": "StatefulPartitionedCall/functional_9_1/conv2d_185_1/convolution/ReadVariableOp", "shape": [3, 3, 256, 128], "dtype": "float32"}, {"name": "StatefulPartitionedCall/functional_9_1/conv2d_185_1/Squeeze", "shape": [128], "dtype": "float32"}, {"name": "StatefulPartitionedCall/functional_9_1/conv2d_186_1/convolution/ReadVariableOp", "shape": [3, 3, 128, 128], "dtype": "float32"}, {"name": "StatefulPartitionedCall/functional_9_1/conv2d_186_1/Squeeze", "shape": [128], "dtype": "float32"}, {"name": "StatefulPartitionedCall/functional_9_1/conv2d_transpose_39_1/Squeeze", "shape": [64], "dtype": "float32"}, {"name": "StatefulPartitionedCall/functional_9_1/conv2d_171_1/convolution/ReadVariableOp", "shape": [3, 3, 1, 64], "dtype": "float32"}, {"name": "StatefulPartitionedCall/functional_9_1/conv2d_171_1/Squeeze", "shape": [64], "dtype": "float32"}, {"name": "StatefulPartitionedCall/functional_9_1/conv2d_172_1/convolution/ReadVariableOp", "shape": [3, 3, 64, 64], "dtype": "float32"}, {"name": "StatefulPartitionedCall/functional_9_1/conv2d_172_1/Squeeze", "shape": [64], "dtype": "float32"}, {"name": "StatefulPartitionedCall/functional_9_1/concatenate_39_1/concat/axis", "shape": [], "dtype": "int32"}, {"name": "StatefulPartitionedCall/functional_9_1/conv2d_187_1/convolution/ReadVariableOp", "shape": [3, 3, 128, 64], "dtype": "float32"}, {"name": "StatefulPartitionedCall/functional_9_1/conv2d_187_1/Squeeze", "shape": [64], "dtype": "float32"}, {"name": "StatefulPartitionedCall/functional_9_1/conv2d_188_1/convolution/ReadVariableOp", "shape": [3, 3, 64, 64], "dtype": "float32"}, {"name": "StatefulPartitionedCall/functional_9_1/conv2d_188_1/Squeeze", "shape": [64], "dtype": "float32"}, {"name": "StatefulPartitionedCall/functional_9_1/conv2d_189_1/convolution/ReadVariableOp", "shape": [1, 1, 64, 1], "dtype": "float32"}, {"name": "StatefulPartitionedCall/functional_9_1/conv2d_189_1/Reshape", "shape": [1, 1, 1, 1], "dtype": "float32"}]}]}